…
Normalize(mean=tensor([0.4850, 0.4560, 0.4060]), std=tensor([0.2290, 0.2240, 0.2250]))
RandomErasing(p=0.25, mode=pixel, count=(1, 1))
---------------------------
reading from datapath /data/benchmarks/ILSVRC2012_LMDB
Number of the class = 1000
Transform = 
Resize(size=256, interpolation=bicubic, max_size=None, antialias=None)
CenterCrop(size=(224, 224))
ToTensor()
Normalize(mean=(0.485, 0.456, 0.406), std=(0.229, 0.224, 0.225))
---------------------------
reading from datapath /data/benchmarks/ILSVRC2012_LMDB
Number of the class = 1000
Sampler_train = <torch.utils.data.distributed.DistributedSampler object at 0x7f6084969c40>
Model = MobileNetV3_Small(
  (conv1): Conv2d(3, 16, kernel_size=(3, 3), stride=(2, 2), padding=(1, 1), bias=False)
  (bn1): BatchNorm2d(16, eps=1e-05, momentum=0.1, affine=True, track_running_stats=True)
  (hs1): Hardswish()
  (bneck): Sequential(
    (0): Block(
      (conv1): Conv2d(16, 16, kernel_size=(1, 1), stride=(1, 1), bias=False)
      (bn1): BatchNorm2d(16, eps=1e-05, momentum=0.1, affine=True, track_running_stats=True)
      (act1): ReLU(inplace=True)
      (conv2): Conv2d(16, 16, kernel_size=(3, 3), stride=(2, 2), padding=(1, 1), groups=16, bias=False)
      (bn2): BatchNorm2d(16, eps=1e-05, momentum=0.1, affine=True, track_running_stats=True)
      (act2): ReLU(inplace=True)
      (se): SeModule(
        (se): Sequential(
          (0): AdaptiveAvgPool2d(output_size=1)
          (1): Conv2d(16, 8, kernel_size=(1, 1), stride=(1, 1), bias=False)
          (2): BatchNorm2d(8, eps=1e-05, momentum=0.1, affine=True, track_running_stats=True)
          (3): ReLU(inplace=True)
          (4): Conv2d(8, 16, kernel_size=(1, 1), stride=(1, 1), bias=False)
          (5): Hardsigmoid()
        )
      )
      (conv3): Conv2d(16, 16, kernel_size=(1, 1), stride=(1, 1), bias=False)
      (bn3): BatchNorm2d(16, eps=1e-05, momentum=0.1, affine=True, track_running_stats=True)
      (act3): ReLU(inplace=True)
      (skip): Sequential(
        (0): Conv2d(16, 16, kernel_size=(3, 3), stride=(2, 2), padding=(1, 1), groups=16, bias=False)
        (1): BatchNorm2d(16, eps=1e-05, momentum=0.1, affine=True, track_running_stats=True)
      )
    )
    (1): Block(
      (conv1): Conv2d(16, 72, kernel_size=(1, 1), stride=(1, 1), bias=False)
      (bn1): BatchNorm2d(72, eps=1e-05, momentum=0.1, affine=True, track_running_stats=True)
      (act1): ReLU(inplace=True)
      (conv2): Conv2d(72, 72, kernel_size=(3, 3), stride=(2, 2), padding=(1, 1), groups=72, bias=False)
      (bn2): BatchNorm2d(72, eps=1e-05, momentum=0.1, affine=True, track_running_stats=True)
      (act2): ReLU(inplace=True)
      (se): Identity()
      (conv3): Conv2d(72, 24, kernel_size=(1, 1), stride=(1, 1), bias=False)
      (bn3): BatchNorm2d(24, eps=1e-05, momentum=0.1, affine=True, track_running_stats=True)
      (act3): ReLU(inplace=True)
      (skip): Sequential(
        (0): Conv2d(16, 16, kernel_size=(3, 3), stride=(2, 2), padding=(1, 1), groups=16, bias=False)
        (1): BatchNorm2d(16, eps=1e-05, momentum=0.1, affine=True, track_running_stats=True)
        (2): Conv2d(16, 24, kernel_size=(1, 1), stride=(1, 1))
        (3): BatchNorm2d(24, eps=1e-05, momentum=0.1, affine=True, track_running_stats=True)
      )
    )
    (2): Block(
      (conv1): Conv2d(24, 88, kernel_size=(1, 1), stride=(1, 1), bias=False)
      (bn1): BatchNorm2d(88, eps=1e-05, momentum=0.1, affine=True, track_running_stats=True)
      (act1): ReLU(inplace=True)
      (conv2): Conv2d(88, 88, kernel_size=(3, 3), stride=(1, 1), padding=(1, 1), groups=88, bias=False)
      (bn2): BatchNorm2d(88, eps=1e-05, momentum=0.1, affine=True, track_running_stats=True)
      (act2): ReLU(inplace=True)
      (se): Identity()
      (conv3): Conv2d(88, 24, kernel_size=(1, 1), stride=(1, 1), bias=False)
      (bn3): BatchNorm2d(24, eps=1e-05, momentum=0.1, affine=True, track_running_stats=True)
      (act3): ReLU(inplace=True)
    )
    (3): Block(
      (conv1): Conv2d(24, 96, kernel_size=(1, 1), stride=(1, 1), bias=False)
      (bn1): BatchNorm2d(96, eps=1e-05, momentum=0.1, affine=True, track_running_stats=True)
      (act1): Hardswish()
      (conv2): Conv2d(96, 96, kernel_size=(5, 5), stride=(2, 2), padding=(2, 2), groups=96, bias=False)
      (bn2): BatchNorm2d(96, eps=1e-05, momentum=0.1, affine=True, track_running_stats=True)
      (act2): Hardswish()
      (se): SeModule(
        (se): Sequential(
          (0): AdaptiveAvgPool2d(output_size=1)
          (1): Conv2d(96, 24, kernel_size=(1, 1), stride=(1, 1), bias=False)
          (2): BatchNorm2d(24, eps=1e-05, momentum=0.1, affine=True, track_running_stats=True)
          (3): ReLU(inplace=True)
          (4): Conv2d(24, 96, kernel_size=(1, 1), stride=(1, 1), bias=False)
          (5): Hardsigmoid()
        )
      )
      (conv3): Conv2d(96, 40, kernel_size=(1, 1), stride=(1, 1), bias=False)
      (bn3): BatchNorm2d(40, eps=1e-05, momentum=0.1, affine=True, track_running_stats=True)
      (act3): Hardswish()
      (skip): Sequential(
        (0): Conv2d(24, 24, kernel_size=(3, 3), stride=(2, 2), padding=(1, 1), groups=24, bias=False)
        (1): BatchNorm2d(24, eps=1e-05, momentum=0.1, affine=True, track_running_stats=True)
        (2): Conv2d(24, 40, kernel_size=(1, 1), stride=(1, 1))
        (3): BatchNorm2d(40, eps=1e-05, momentum=0.1, affine=True, track_running_stats=True)
      )
    )
    (4): Block(
      (conv1): Conv2d(40, 240, kernel_size=(1, 1), stride=(1, 1), bias=False)
      (bn1): BatchNorm2d(240, eps=1e-05, momentum=0.1, affine=True, track_running_stats=True)
      (act1): Hardswish()
      (conv2): Conv2d(240, 240, kernel_size=(5, 5), stride=(1, 1), padding=(2, 2), groups=240, bias=False)
      (bn2): BatchNorm2d(240, eps=1e-05, momentum=0.1, affine=True, track_running_stats=True)
      (act2): Hardswish()
      (se): SeModule(
        (se): Sequential(
          (0): AdaptiveAvgPool2d(output_size=1)
          (1): Conv2d(240, 60, kernel_size=(1, 1), stride=(1, 1), bias=False)
          (2): BatchNorm2d(60, eps=1e-05, momentum=0.1, affine=True, track_running_stats=True)
          (3): ReLU(inplace=True)
          (4): Conv2d(60, 240, kernel_size=(1, 1), stride=(1, 1), bias=False)
          (5): Hardsigmoid()
        )
      )
      (conv3): Conv2d(240, 40, kernel_size=(1, 1), stride=(1, 1), bias=False)
      (bn3): BatchNorm2d(40, eps=1e-05, momentum=0.1, affine=True, track_running_stats=True)
      (act3): Hardswish()
    )
    (5): Block(
      (conv1): Conv2d(40, 240, kernel_size=(1, 1), stride=(1, 1), bias=False)
      (bn1): BatchNorm2d(240, eps=1e-05, momentum=0.1, affine=True, track_running_stats=True)
      (act1): Hardswish()
      (conv2): Conv2d(240, 240, kernel_size=(5, 5), stride=(1, 1), padding=(2, 2), groups=240, bias=False)
      (bn2): BatchNorm2d(240, eps=1e-05, momentum=0.1, affine=True, track_running_stats=True)
      (act2): Hardswish()
      (se): SeModule(
        (se): Sequential(
          (0): AdaptiveAvgPool2d(output_size=1)
          (1): Conv2d(240, 60, kernel_size=(1, 1), stride=(1, 1), bias=False)
          (2): BatchNorm2d(60, eps=1e-05, momentum=0.1, affine=True, track_running_stats=True)
          (3): ReLU(inplace=True)
          (4): Conv2d(60, 240, kernel_size=(1, 1), stride=(1, 1), bias=False)
          (5): Hardsigmoid()
        )
      )
      (conv3): Conv2d(240, 40, kernel_size=(1, 1), stride=(1, 1), bias=False)
      (bn3): BatchNorm2d(40, eps=1e-05, momentum=0.1, affine=True, track_running_stats=True)
      (act3): Hardswish()
    )
    (6): Block(
      (conv1): Conv2d(40, 120, kernel_size=(1, 1), stride=(1, 1), bias=False)
      (bn1): BatchNorm2d(120, eps=1e-05, momentum=0.1, affine=True, track_running_stats=True)
      (act1): Hardswish()
      (conv2): Conv2d(120, 120, kernel_size=(5, 5), stride=(1, 1), padding=(2, 2), groups=120, bias=False)
      (bn2): BatchNorm2d(120, eps=1e-05, momentum=0.1, affine=True, track_running_stats=True)
      (act2): Hardswish()
      (se): SeModule(
        (se): Sequential(
          (0): AdaptiveAvgPool2d(output_size=1)
          (1): Conv2d(120, 30, kernel_size=(1, 1), stride=(1, 1), bias=False)
          (2): BatchNorm2d(30, eps=1e-05, momentum=0.1, affine=True, track_running_stats=True)
          (3): ReLU(inplace=True)
          (4): Conv2d(30, 120, kernel_size=(1, 1), stride=(1, 1), bias=False)
          (5): Hardsigmoid()
        )
      )
      (conv3): Conv2d(120, 48, kernel_size=(1, 1), stride=(1, 1), bias=False)
      (bn3): BatchNorm2d(48, eps=1e-05, momentum=0.1, affine=True, track_running_stats=True)
      (act3): Hardswish()
      (skip): Sequential(
        (0): Conv2d(40, 48, kernel_size=(1, 1), stride=(1, 1), bias=False)
        (1): BatchNorm2d(48, eps=1e-05, momentum=0.1, affine=True, track_running_stats=True)
      )
    )
    (7): Block(
      (conv1): Conv2d(48, 144, kernel_size=(1, 1), stride=(1, 1), bias=False)
      (bn1): BatchNorm2d(144, eps=1e-05, momentum=0.1, affine=True, track_running_stats=True)
      (act1): Hardswish()
      (conv2): Conv2d(144, 144, kernel_size=(5, 5), stride=(1, 1), padding=(2, 2), groups=144, bias=False)
      (bn2): BatchNorm2d(144, eps=1e-05, momentum=0.1, affine=True, track_running_stats=True)
      (act2): Hardswish()
      (se): SeModule(
        (se): Sequential(
          (0): AdaptiveAvgPool2d(output_size=1)
          (1): Conv2d(144, 36, kernel_size=(1, 1), stride=(1, 1), bias=False)
          (2): BatchNorm2d(36, eps=1e-05, momentum=0.1, affine=True, track_running_stats=True)
          (3): ReLU(inplace=True)
          (4): Conv2d(36, 144, kernel_size=(1, 1), stride=(1, 1), bias=False)
          (5): Hardsigmoid()
        )
      )
      (conv3): Conv2d(144, 48, kernel_size=(1, 1), stride=(1, 1), bias=False)
      (bn3): BatchNorm2d(48, eps=1e-05, momentum=0.1, affine=True, track_running_stats=True)
      (act3): Hardswish()
    )
    (8): Block(
      (conv1): Conv2d(48, 288, kernel_size=(1, 1), stride=(1, 1), bias=False)
      (bn1): BatchNorm2d(288, eps=1e-05, momentum=0.1, affine=True, track_running_stats=True)
      (act1): Hardswish()
      (conv2): Conv2d(288, 288, kernel_size=(5, 5), stride=(2, 2), padding=(2, 2), groups=288, bias=False)
      (bn2): BatchNorm2d(288, eps=1e-05, momentum=0.1, affine=True, track_running_stats=True)
      (act2): Hardswish()
      (se): SeModule(
        (se): Sequential(
          (0): AdaptiveAvgPool2d(output_size=1)
          (1): Conv2d(288, 72, kernel_size=(1, 1), stride=(1, 1), bias=False)
          (2): BatchNorm2d(72, eps=1e-05, momentum=0.1, affine=True, track_running_stats=True)
          (3): ReLU(inplace=True)
          (4): Conv2d(72, 288, kernel_size=(1, 1), stride=(1, 1), bias=False)
          (5): Hardsigmoid()
        )
      )
      (conv3): Conv2d(288, 96, kernel_size=(1, 1), stride=(1, 1), bias=False)
      (bn3): BatchNorm2d(96, eps=1e-05, momentum=0.1, affine=True, track_running_stats=True)
      (act3): Hardswish()
      (skip): Sequential(
        (0): Conv2d(48, 48, kernel_size=(3, 3), stride=(2, 2), padding=(1, 1), groups=48, bias=False)
        (1): BatchNorm2d(48, eps=1e-05, momentum=0.1, affine=True, track_running_stats=True)
        (2): Conv2d(48, 96, kernel_size=(1, 1), stride=(1, 1))
        (3): BatchNorm2d(96, eps=1e-05, momentum=0.1, affine=True, track_running_stats=True)
      )
    )
    (9): Block(
      (conv1): Conv2d(96, 576, kernel_size=(1, 1), stride=(1, 1), bias=False)
      (bn1): BatchNorm2d(576, eps=1e-05, momentum=0.1, affine=True, track_running_stats=True)
      (act1): Hardswish()
      (conv2): Conv2d(576, 576, kernel_size=(5, 5), stride=(1, 1), padding=(2, 2), groups=576, bias=False)
      (bn2): BatchNorm2d(576, eps=1e-05, momentum=0.1, affine=True, track_running_stats=True)
      (act2): Hardswish()
      (se): SeModule(
        (se): Sequential(
          (0): AdaptiveAvgPool2d(output_size=1)
          (1): Conv2d(576, 144, kernel_size=(1, 1), stride=(1, 1), bias=False)
          (2): BatchNorm2d(144, eps=1e-05, momentum=0.1, affine=True, track_running_stats=True)
          (3): ReLU(inplace=True)
          (4): Conv2d(144, 576, kernel_size=(1, 1), stride=(1, 1), bias=False)
          (5): Hardsigmoid()
        )
      )
      (conv3): Conv2d(576, 96, kernel_size=(1, 1), stride=(1, 1), bias=False)
      (bn3): BatchNorm2d(96, eps=1e-05, momentum=0.1, affine=True, track_running_stats=True)
      (act3): Hardswish()
    )
    (10): Block(
      (conv1): Conv2d(96, 576, kernel_size=(1, 1), stride=(1, 1), bias=False)
      (bn1): BatchNorm2d(576, eps=1e-05, momentum=0.1, affine=True, track_running_stats=True)
      (act1): Hardswish()
      (conv2): Conv2d(576, 576, kernel_size=(5, 5), stride=(1, 1), padding=(2, 2), groups=576, bias=False)
      (bn2): BatchNorm2d(576, eps=1e-05, momentum=0.1, affine=True, track_running_stats=True)
      (act2): Hardswish()
      (se): SeModule(
        (se): Sequential(
          (0): AdaptiveAvgPool2d(output_size=1)
          (1): Conv2d(576, 144, kernel_size=(1, 1), stride=(1, 1), bias=False)
          (2): BatchNorm2d(144, eps=1e-05, momentum=0.1, affine=True, track_running_stats=True)
          (3): ReLU(inplace=True)
          (4): Conv2d(144, 576, kernel_size=(1, 1), stride=(1, 1), bias=False)
          (5): Hardsigmoid()
        )
      )
      (conv3): Conv2d(576, 96, kernel_size=(1, 1), stride=(1, 1), bias=False)
      (bn3): BatchNorm2d(96, eps=1e-05, momentum=0.1, affine=True, track_running_stats=True)
      (act3): Hardswish()
    )
  )
  (conv2): Conv2d(96, 576, kernel_size=(1, 1), stride=(1, 1), bias=False)
  (bn2): BatchNorm2d(576, eps=1e-05, momentum=0.1, affine=True, track_running_stats=True)
  (hs2): Hardswish()
  (gap): AdaptiveAvgPool2d(output_size=1)
  (linear3): Linear(in_features=576, out_features=1280, bias=False)
  (bn3): BatchNorm1d(1280, eps=1e-05, momentum=0.1, affine=True, track_running_stats=True)
  (hs3): Hardswish()
  (drop): Dropout(p=0.2, inplace=False)
  (linear4): Linear(in_features=1280, out_features=1000, bias=True)
)
number of params: 2950524
LR = 0.00400000
Batch size = 4096
Update frequent = 2
Number of training examples = 1281167
Number of training training per epoch = 312
Param groups = {
  "decay": {
    "weight_decay": 0.05,
    "params": [
      "conv1.weight",
      "bneck.0.conv1.weight",
      "bneck.0.conv2.weight",
      "bneck.0.se.se.1.weight",
      "bneck.0.se.se.4.weight",
…
