…
Normalize(mean=tensor([0.4850, 0.4560, 0.4060]), std=tensor([0.2290, 0.2240, 0.2250]))
RandomErasing(p=0.25, mode=pixel, count=(1, 1))
---------------------------
reading from datapath /data/benchmarks/ILSVRC2012_LMDB
Number of the class = 1000
Transform = 
Resize(size=256, interpolation=bicubic, max_size=None, antialias=None)
CenterCrop(size=(224, 224))
ToTensor()
Normalize(mean=(0.485, 0.456, 0.406), std=(0.229, 0.224, 0.225))
---------------------------
reading from datapath /data/benchmarks/ILSVRC2012_LMDB
Number of the class = 1000
Sampler_train = <torch.utils.data.distributed.DistributedSampler object at 0x7f6a23a9c1c0>
Model = MobileNetV3_Large(
  (conv1): Conv2d(3, 16, kernel_size=(3, 3), stride=(2, 2), padding=(1, 1), bias=False)
  (bn1): BatchNorm2d(16, eps=1e-05, momentum=0.1, affine=True, track_running_stats=True)
  (hs1): Hardswish()
  (bneck): Sequential(
    (0): Block(
      (conv1): Conv2d(16, 16, kernel_size=(1, 1), stride=(1, 1), bias=False)
      (bn1): BatchNorm2d(16, eps=1e-05, momentum=0.1, affine=True, track_running_stats=True)
      (act1): ReLU(inplace=True)
      (conv2): Conv2d(16, 16, kernel_size=(3, 3), stride=(1, 1), padding=(1, 1), groups=16, bias=False)
      (bn2): BatchNorm2d(16, eps=1e-05, momentum=0.1, affine=True, track_running_stats=True)
      (act2): ReLU(inplace=True)
      (se): Identity()
      (conv3): Conv2d(16, 16, kernel_size=(1, 1), stride=(1, 1), bias=False)
      (bn3): BatchNorm2d(16, eps=1e-05, momentum=0.1, affine=True, track_running_stats=True)
      (act3): ReLU(inplace=True)
    )
    (1): Block(
      (conv1): Conv2d(16, 64, kernel_size=(1, 1), stride=(1, 1), bias=False)
      (bn1): BatchNorm2d(64, eps=1e-05, momentum=0.1, affine=True, track_running_stats=True)
      (act1): ReLU(inplace=True)
      (conv2): Conv2d(64, 64, kernel_size=(3, 3), stride=(2, 2), padding=(1, 1), groups=64, bias=False)
      (bn2): BatchNorm2d(64, eps=1e-05, momentum=0.1, affine=True, track_running_stats=True)
      (act2): ReLU(inplace=True)
      (se): Identity()
      (conv3): Conv2d(64, 24, kernel_size=(1, 1), stride=(1, 1), bias=False)
      (bn3): BatchNorm2d(24, eps=1e-05, momentum=0.1, affine=True, track_running_stats=True)
      (act3): ReLU(inplace=True)
      (skip): Sequential(
        (0): Conv2d(16, 16, kernel_size=(3, 3), stride=(2, 2), padding=(1, 1), groups=16, bias=False)
        (1): BatchNorm2d(16, eps=1e-05, momentum=0.1, affine=True, track_running_stats=True)
        (2): Conv2d(16, 24, kernel_size=(1, 1), stride=(1, 1))
        (3): BatchNorm2d(24, eps=1e-05, momentum=0.1, affine=True, track_running_stats=True)
      )
    )
    (2): Block(
      (conv1): Conv2d(24, 72, kernel_size=(1, 1), stride=(1, 1), bias=False)
      (bn1): BatchNorm2d(72, eps=1e-05, momentum=0.1, affine=True, track_running_stats=True)
      (act1): ReLU(inplace=True)
      (conv2): Conv2d(72, 72, kernel_size=(3, 3), stride=(1, 1), padding=(1, 1), groups=72, bias=False)
      (bn2): BatchNorm2d(72, eps=1e-05, momentum=0.1, affine=True, track_running_stats=True)
      (act2): ReLU(inplace=True)
      (se): Identity()
      (conv3): Conv2d(72, 24, kernel_size=(1, 1), stride=(1, 1), bias=False)
      (bn3): BatchNorm2d(24, eps=1e-05, momentum=0.1, affine=True, track_running_stats=True)
      (act3): ReLU(inplace=True)
    )
    (3): Block(
      (conv1): Conv2d(24, 72, kernel_size=(1, 1), stride=(1, 1), bias=False)
      (bn1): BatchNorm2d(72, eps=1e-05, momentum=0.1, affine=True, track_running_stats=True)
      (act1): ReLU(inplace=True)
      (conv2): Conv2d(72, 72, kernel_size=(5, 5), stride=(2, 2), padding=(2, 2), groups=72, bias=False)
      (bn2): BatchNorm2d(72, eps=1e-05, momentum=0.1, affine=True, track_running_stats=True)
      (act2): ReLU(inplace=True)
      (se): SeModule(
        (se): Sequential(
          (0): AdaptiveAvgPool2d(output_size=1)
          (1): Conv2d(72, 18, kernel_size=(1, 1), stride=(1, 1), bias=False)
          (2): BatchNorm2d(18, eps=1e-05, momentum=0.1, affine=True, track_running_stats=True)
          (3): ReLU(inplace=True)
          (4): Conv2d(18, 72, kernel_size=(1, 1), stride=(1, 1), bias=False)
          (5): Hardsigmoid()
        )
      )
      (conv3): Conv2d(72, 40, kernel_size=(1, 1), stride=(1, 1), bias=False)
      (bn3): BatchNorm2d(40, eps=1e-05, momentum=0.1, affine=True, track_running_stats=True)
      (act3): ReLU(inplace=True)
      (skip): Sequential(
        (0): Conv2d(24, 24, kernel_size=(3, 3), stride=(2, 2), padding=(1, 1), groups=24, bias=False)
        (1): BatchNorm2d(24, eps=1e-05, momentum=0.1, affine=True, track_running_stats=True)
        (2): Conv2d(24, 40, kernel_size=(1, 1), stride=(1, 1))
        (3): BatchNorm2d(40, eps=1e-05, momentum=0.1, affine=True, track_running_stats=True)
      )
    )
    (4): Block(
      (conv1): Conv2d(40, 120, kernel_size=(1, 1), stride=(1, 1), bias=False)
      (bn1): BatchNorm2d(120, eps=1e-05, momentum=0.1, affine=True, track_running_stats=True)
      (act1): ReLU(inplace=True)
      (conv2): Conv2d(120, 120, kernel_size=(5, 5), stride=(1, 1), padding=(2, 2), groups=120, bias=False)
      (bn2): BatchNorm2d(120, eps=1e-05, momentum=0.1, affine=True, track_running_stats=True)
      (act2): ReLU(inplace=True)
      (se): SeModule(
        (se): Sequential(
          (0): AdaptiveAvgPool2d(output_size=1)
          (1): Conv2d(120, 30, kernel_size=(1, 1), stride=(1, 1), bias=False)
          (2): BatchNorm2d(30, eps=1e-05, momentum=0.1, affine=True, track_running_stats=True)
          (3): ReLU(inplace=True)
          (4): Conv2d(30, 120, kernel_size=(1, 1), stride=(1, 1), bias=False)
          (5): Hardsigmoid()
        )
      )
      (conv3): Conv2d(120, 40, kernel_size=(1, 1), stride=(1, 1), bias=False)
      (bn3): BatchNorm2d(40, eps=1e-05, momentum=0.1, affine=True, track_running_stats=True)
      (act3): ReLU(inplace=True)
    )
    (5): Block(
      (conv1): Conv2d(40, 120, kernel_size=(1, 1), stride=(1, 1), bias=False)
      (bn1): BatchNorm2d(120, eps=1e-05, momentum=0.1, affine=True, track_running_stats=True)
      (act1): ReLU(inplace=True)
      (conv2): Conv2d(120, 120, kernel_size=(5, 5), stride=(1, 1), padding=(2, 2), groups=120, bias=False)
      (bn2): BatchNorm2d(120, eps=1e-05, momentum=0.1, affine=True, track_running_stats=True)
      (act2): ReLU(inplace=True)
      (se): SeModule(
        (se): Sequential(
          (0): AdaptiveAvgPool2d(output_size=1)
          (1): Conv2d(120, 30, kernel_size=(1, 1), stride=(1, 1), bias=False)
          (2): BatchNorm2d(30, eps=1e-05, momentum=0.1, affine=True, track_running_stats=True)
          (3): ReLU(inplace=True)
          (4): Conv2d(30, 120, kernel_size=(1, 1), stride=(1, 1), bias=False)
          (5): Hardsigmoid()
        )
      )
      (conv3): Conv2d(120, 40, kernel_size=(1, 1), stride=(1, 1), bias=False)
      (bn3): BatchNorm2d(40, eps=1e-05, momentum=0.1, affine=True, track_running_stats=True)
      (act3): ReLU(inplace=True)
    )
    (6): Block(
      (conv1): Conv2d(40, 240, kernel_size=(1, 1), stride=(1, 1), bias=False)
      (bn1): BatchNorm2d(240, eps=1e-05, momentum=0.1, affine=True, track_running_stats=True)
      (act1): Hardswish()
      (conv2): Conv2d(240, 240, kernel_size=(3, 3), stride=(2, 2), padding=(1, 1), groups=240, bias=False)
      (bn2): BatchNorm2d(240, eps=1e-05, momentum=0.1, affine=True, track_running_stats=True)
      (act2): Hardswish()
      (se): Identity()
      (conv3): Conv2d(240, 80, kernel_size=(1, 1), stride=(1, 1), bias=False)
      (bn3): BatchNorm2d(80, eps=1e-05, momentum=0.1, affine=True, track_running_stats=True)
      (act3): Hardswish()
      (skip): Sequential(
        (0): Conv2d(40, 40, kernel_size=(3, 3), stride=(2, 2), padding=(1, 1), groups=40, bias=False)
        (1): BatchNorm2d(40, eps=1e-05, momentum=0.1, affine=True, track_running_stats=True)
        (2): Conv2d(40, 80, kernel_size=(1, 1), stride=(1, 1))
        (3): BatchNorm2d(80, eps=1e-05, momentum=0.1, affine=True, track_running_stats=True)
      )
    )
    (7): Block(
      (conv1): Conv2d(80, 200, kernel_size=(1, 1), stride=(1, 1), bias=False)
      (bn1): BatchNorm2d(200, eps=1e-05, momentum=0.1, affine=True, track_running_stats=True)
      (act1): Hardswish()
      (conv2): Conv2d(200, 200, kernel_size=(3, 3), stride=(1, 1), padding=(1, 1), groups=200, bias=False)
      (bn2): BatchNorm2d(200, eps=1e-05, momentum=0.1, affine=True, track_running_stats=True)
      (act2): Hardswish()
      (se): Identity()
      (conv3): Conv2d(200, 80, kernel_size=(1, 1), stride=(1, 1), bias=False)
      (bn3): BatchNorm2d(80, eps=1e-05, momentum=0.1, affine=True, track_running_stats=True)
      (act3): Hardswish()
    )
    (8): Block(
      (conv1): Conv2d(80, 184, kernel_size=(1, 1), stride=(1, 1), bias=False)
      (bn1): BatchNorm2d(184, eps=1e-05, momentum=0.1, affine=True, track_running_stats=True)
      (act1): Hardswish()
      (conv2): Conv2d(184, 184, kernel_size=(3, 3), stride=(1, 1), padding=(1, 1), groups=184, bias=False)
      (bn2): BatchNorm2d(184, eps=1e-05, momentum=0.1, affine=True, track_running_stats=True)
      (act2): Hardswish()
      (se): Identity()
      (conv3): Conv2d(184, 80, kernel_size=(1, 1), stride=(1, 1), bias=False)
      (bn3): BatchNorm2d(80, eps=1e-05, momentum=0.1, affine=True, track_running_stats=True)
      (act3): Hardswish()
    )
    (9): Block(
      (conv1): Conv2d(80, 184, kernel_size=(1, 1), stride=(1, 1), bias=False)
      (bn1): BatchNorm2d(184, eps=1e-05, momentum=0.1, affine=True, track_running_stats=True)
      (act1): Hardswish()
      (conv2): Conv2d(184, 184, kernel_size=(3, 3), stride=(1, 1), padding=(1, 1), groups=184, bias=False)
      (bn2): BatchNorm2d(184, eps=1e-05, momentum=0.1, affine=True, track_running_stats=True)
      (act2): Hardswish()
      (se): Identity()
      (conv3): Conv2d(184, 80, kernel_size=(1, 1), stride=(1, 1), bias=False)
      (bn3): BatchNorm2d(80, eps=1e-05, momentum=0.1, affine=True, track_running_stats=True)
      (act3): Hardswish()
    )
    (10): Block(
      (conv1): Conv2d(80, 480, kernel_size=(1, 1), stride=(1, 1), bias=False)
      (bn1): BatchNorm2d(480, eps=1e-05, momentum=0.1, affine=True, track_running_stats=True)
      (act1): Hardswish()
      (conv2): Conv2d(480, 480, kernel_size=(3, 3), stride=(1, 1), padding=(1, 1), groups=480, bias=False)
      (bn2): BatchNorm2d(480, eps=1e-05, momentum=0.1, affine=True, track_running_stats=True)
      (act2): Hardswish()
      (se): SeModule(
        (se): Sequential(
          (0): AdaptiveAvgPool2d(output_size=1)
          (1): Conv2d(480, 120, kernel_size=(1, 1), stride=(1, 1), bias=False)
          (2): BatchNorm2d(120, eps=1e-05, momentum=0.1, affine=True, track_running_stats=True)
          (3): ReLU(inplace=True)
          (4): Conv2d(120, 480, kernel_size=(1, 1), stride=(1, 1), bias=False)
          (5): Hardsigmoid()
        )
      )
      (conv3): Conv2d(480, 112, kernel_size=(1, 1), stride=(1, 1), bias=False)
      (bn3): BatchNorm2d(112, eps=1e-05, momentum=0.1, affine=True, track_running_stats=True)
      (act3): Hardswish()
      (skip): Sequential(
        (0): Conv2d(80, 112, kernel_size=(1, 1), stride=(1, 1), bias=False)
        (1): BatchNorm2d(112, eps=1e-05, momentum=0.1, affine=True, track_running_stats=True)
      )
    )
    (11): Block(
      (conv1): Conv2d(112, 672, kernel_size=(1, 1), stride=(1, 1), bias=False)
      (bn1): BatchNorm2d(672, eps=1e-05, momentum=0.1, affine=True, track_running_stats=True)
      (act1): Hardswish()
      (conv2): Conv2d(672, 672, kernel_size=(3, 3), stride=(1, 1), padding=(1, 1), groups=672, bias=False)
      (bn2): BatchNorm2d(672, eps=1e-05, momentum=0.1, affine=True, track_running_stats=True)
      (act2): Hardswish()
      (se): SeModule(
        (se): Sequential(
          (0): AdaptiveAvgPool2d(output_size=1)
          (1): Conv2d(672, 168, kernel_size=(1, 1), stride=(1, 1), bias=False)
          (2): BatchNorm2d(168, eps=1e-05, momentum=0.1, affine=True, track_running_stats=True)
          (3): ReLU(inplace=True)
          (4): Conv2d(168, 672, kernel_size=(1, 1), stride=(1, 1), bias=False)
          (5): Hardsigmoid()
        )
      )
      (conv3): Conv2d(672, 112, kernel_size=(1, 1), stride=(1, 1), bias=False)
      (bn3): BatchNorm2d(112, eps=1e-05, momentum=0.1, affine=True, track_running_stats=True)
      (act3): Hardswish()
    )
    (12): Block(
      (conv1): Conv2d(112, 672, kernel_size=(1, 1), stride=(1, 1), bias=False)
      (bn1): BatchNorm2d(672, eps=1e-05, momentum=0.1, affine=True, track_running_stats=True)
      (act1): Hardswish()
      (conv2): Conv2d(672, 672, kernel_size=(5, 5), stride=(2, 2), padding=(2, 2), groups=672, bias=False)
      (bn2): BatchNorm2d(672, eps=1e-05, momentum=0.1, affine=True, track_running_stats=True)
      (act2): Hardswish()
      (se): SeModule(
        (se): Sequential(
          (0): AdaptiveAvgPool2d(output_size=1)
          (1): Conv2d(672, 168, kernel_size=(1, 1), stride=(1, 1), bias=False)
          (2): BatchNorm2d(168, eps=1e-05, momentum=0.1, affine=True, track_running_stats=True)
          (3): ReLU(inplace=True)
          (4): Conv2d(168, 672, kernel_size=(1, 1), stride=(1, 1), bias=False)
          (5): Hardsigmoid()
        )
      )
      (conv3): Conv2d(672, 160, kernel_size=(1, 1), stride=(1, 1), bias=False)
      (bn3): BatchNorm2d(160, eps=1e-05, momentum=0.1, affine=True, track_running_stats=True)
      (act3): Hardswish()
      (skip): Sequential(
        (0): Conv2d(112, 112, kernel_size=(3, 3), stride=(2, 2), padding=(1, 1), groups=112, bias=False)
        (1): BatchNorm2d(112, eps=1e-05, momentum=0.1, affine=True, track_running_stats=True)
        (2): Conv2d(112, 160, kernel_size=(1, 1), stride=(1, 1))
        (3): BatchNorm2d(160, eps=1e-05, momentum=0.1, affine=True, track_running_stats=True)
      )
    )
    (13): Block(
      (conv1): Conv2d(160, 672, kernel_size=(1, 1), stride=(1, 1), bias=False)
      (bn1): BatchNorm2d(672, eps=1e-05, momentum=0.1, affine=True, track_running_stats=True)
      (act1): Hardswish()
      (conv2): Conv2d(672, 672, kernel_size=(5, 5), stride=(1, 1), padding=(2, 2), groups=672, bias=False)
      (bn2): BatchNorm2d(672, eps=1e-05, momentum=0.1, affine=True, track_running_stats=True)
      (act2): Hardswish()
      (se): SeModule(
        (se): Sequential(
          (0): AdaptiveAvgPool2d(output_size=1)
          (1): Conv2d(672, 168, kernel_size=(1, 1), stride=(1, 1), bias=False)
          (2): BatchNorm2d(168, eps=1e-05, momentum=0.1, affine=True, track_running_stats=True)
          (3): ReLU(inplace=True)
          (4): Conv2d(168, 672, kernel_size=(1, 1), stride=(1, 1), bias=False)
          (5): Hardsigmoid()
        )
      )
      (conv3): Conv2d(672, 160, kernel_size=(1, 1), stride=(1, 1), bias=False)
      (bn3): BatchNorm2d(160, eps=1e-05, momentum=0.1, affine=True, track_running_stats=True)
      (act3): Hardswish()
    )
    (14): Block(
      (conv1): Conv2d(160, 960, kernel_size=(1, 1), stride=(1, 1), bias=False)
      (bn1): BatchNorm2d(960, eps=1e-05, momentum=0.1, affine=True, track_running_stats=True)
      (act1): Hardswish()
      (conv2): Conv2d(960, 960, kernel_size=(5, 5), stride=(1, 1), padding=(2, 2), groups=960, bias=False)
      (bn2): BatchNorm2d(960, eps=1e-05, momentum=0.1, affine=True, track_running_stats=True)
      (act2): Hardswish()
      (se): SeModule(
        (se): Sequential(
          (0): AdaptiveAvgPool2d(output_size=1)
          (1): Conv2d(960, 240, kernel_size=(1, 1), stride=(1, 1), bias=False)
          (2): BatchNorm2d(240, eps=1e-05, momentum=0.1, affine=True, track_running_stats=True)
          (3): ReLU(inplace=True)
          (4): Conv2d(240, 960, kernel_size=(1, 1), stride=(1, 1), bias=False)
          (5): Hardsigmoid()
        )
      )
      (conv3): Conv2d(960, 160, kernel_size=(1, 1), stride=(1, 1), bias=False)
      (bn3): BatchNorm2d(160, eps=1e-05, momentum=0.1, affine=True, track_running_stats=True)
      (act3): Hardswish()
    )
  )
  (conv2): Conv2d(160, 960, kernel_size=(1, 1), stride=(1, 1), bias=False)
  (bn2): BatchNorm2d(960, eps=1e-05, momentum=0.1, affine=True, track_running_stats=True)
  (hs2): Hardswish()
  (gap): AdaptiveAvgPool2d(output_size=1)
  (linear3): Linear(in_features=960, out_features=1280, bias=False)
  (bn3): BatchNorm1d(1280, eps=1e-05, momentum=0.1, affine=True, track_running_stats=True)
  (hs3): Hardswish()
  (drop): Dropout(p=0.2, inplace=False)
  (linear4): Linear(in_features=1280, out_features=1000, bias=True)
)
number of params: 5178732
LR = 0.00400000
Batch size = 4096
Update frequent = 2
Number of training examples = 1281167
Number of training training per epoch = 312
Param groups = {
  "decay": {
    "weight_decay": 0.05,
    "params": [
      "conv1.weight",
      "bneck.0.conv1.weight",
      "bneck.0.conv2.weight",
      "bneck.0.conv3.weight",
      "bneck.1.conv1.weight",
…
